…
Batch Size: 64
Number of Epochs: 100
Learning Rate: 3e-4
Input Channel: 3
Patch Size: 16
Embedding Size: 768
Input Image Size: 224
ViT Depth: 12
Number of Classes: 100
WandB Project: vit-small-data
WandB Run Name: org_architecture_imagenet100_Lr_3e-4_EMB_768_patch_16_depth_12
Output Directory: results


==========================================================================================
Layer (type:depth-idx)                   Output Shape              Param #
==========================================================================================
├─PatchEmbedding: 1-1                    [-1, 197, 768]            --
|    └─Sequential: 2-1                   [-1, 196, 768]            --
|    |    └─Conv2d: 3-1                  [-1, 768, 14, 14]         590,592
|    |    └─Rearrange: 3-2               [-1, 196, 768]            --
├─TransformerEncoder: 1-2                [-1, 197, 768]            --
|    └─TransformerEncoderBlock: 2-2      [-1, 197, 768]            --
|    |    └─Residual: 3-3                [-1, 197, 768]            2,363,904
|    |    └─Residual: 3-4                [-1, 197, 768]            4,723,968
|    └─TransformerEncoderBlock: 2-3      [-1, 197, 768]            --
|    |    └─Residual: 3-5                [-1, 197, 768]            2,363,904
|    |    └─Residual: 3-6                [-1, 197, 768]            4,723,968
|    └─TransformerEncoderBlock: 2-4      [-1, 197, 768]            --
|    |    └─Residual: 3-7                [-1, 197, 768]            2,363,904
|    |    └─Residual: 3-8                [-1, 197, 768]            4,723,968
|    └─TransformerEncoderBlock: 2-5      [-1, 197, 768]            --
|    |    └─Residual: 3-9                [-1, 197, 768]            2,363,904
|    |    └─Residual: 3-10               [-1, 197, 768]            4,723,968
|    └─TransformerEncoderBlock: 2-6      [-1, 197, 768]            --
|    |    └─Residual: 3-11               [-1, 197, 768]            2,363,904
|    |    └─Residual: 3-12               [-1, 197, 768]            4,723,968
|    └─TransformerEncoderBlock: 2-7      [-1, 197, 768]            --
|    |    └─Residual: 3-13               [-1, 197, 768]            2,363,904
|    |    └─Residual: 3-14               [-1, 197, 768]            4,723,968
|    └─TransformerEncoderBlock: 2-8      [-1, 197, 768]            --
|    |    └─Residual: 3-15               [-1, 197, 768]            2,363,904
|    |    └─Residual: 3-16               [-1, 197, 768]            4,723,968
|    └─TransformerEncoderBlock: 2-9      [-1, 197, 768]            --
|    |    └─Residual: 3-17               [-1, 197, 768]            2,363,904
|    |    └─Residual: 3-18               [-1, 197, 768]            4,723,968
|    └─TransformerEncoderBlock: 2-10     [-1, 197, 768]            --
|    |    └─Residual: 3-19               [-1, 197, 768]            2,363,904
|    |    └─Residual: 3-20               [-1, 197, 768]            4,723,968
|    └─TransformerEncoderBlock: 2-11     [-1, 197, 768]            --
|    |    └─Residual: 3-21               [-1, 197, 768]            2,363,904
|    |    └─Residual: 3-22               [-1, 197, 768]            4,723,968
|    └─TransformerEncoderBlock: 2-12     [-1, 197, 768]            --
|    |    └─Residual: 3-23               [-1, 197, 768]            2,363,904
|    |    └─Residual: 3-24               [-1, 197, 768]            4,723,968
|    └─TransformerEncoderBlock: 2-13     [-1, 197, 768]            --
|    |    └─Residual: 3-25               [-1, 197, 768]            2,363,904
|    |    └─Residual: 3-26               [-1, 197, 768]            4,723,968
├─ClassificationHead: 1-3                [-1, 100]                 --
|    └─Reduce: 2-14                      [-1, 768]                 --
|    └─LayerNorm: 2-15                   [-1, 768]                 1,536
|    └─Linear: 2-16                      [-1, 100]                 76,900
==========================================================================================
Total params: 85,723,492
Trainable params: 85,723,492
Non-trainable params: 0
Total mult-adds (M): 456.75
==========================================================================================
Input size (MB): 0.57
Forward/backward pass size (MB): 1.16
Params size (MB): 327.01
Estimated Total Size (MB): 328.74
==========================================================================================

 ==========================================================================================
Layer (type:depth-idx)                   Output Shape              Param #
==========================================================================================
├─PatchEmbedding: 1-1                    [-1, 197, 768]            --
|    └─Sequential: 2-1                   [-1, 196, 768]            --
|    |    └─Conv2d: 3-1                  [-1, 768, 14, 14]         590,592
|    |    └─Rearrange: 3-2               [-1, 196, 768]            --
├─TransformerEncoder: 1-2                [-1, 197, 768]            --
|    └─TransformerEncoderBlock: 2-2      [-1, 197, 768]            --
|    |    └─Residual: 3-3                [-1, 197, 768]            2,363,904
|    |    └─Residual: 3-4                [-1, 197, 768]            4,723,968
|    └─TransformerEncoderBlock: 2-3      [-1, 197, 768]            --
|    |    └─Residual: 3-5                [-1, 197, 768]            2,363,904
|    |    └─Residual: 3-6                [-1, 197, 768]            4,723,968
|    └─TransformerEncoderBlock: 2-4      [-1, 197, 768]            --
|    |    └─Residual: 3-7                [-1, 197, 768]            2,363,904
|    |    └─Residual: 3-8                [-1, 197, 768]            4,723,968
|    └─TransformerEncoderBlock: 2-5      [-1, 197, 768]            --
|    |    └─Residual: 3-9                [-1, 197, 768]            2,363,904
|    |    └─Residual: 3-10               [-1, 197, 768]            4,723,968
|    └─TransformerEncoderBlock: 2-6      [-1, 197, 768]            --
|    |    └─Residual: 3-11               [-1, 197, 768]            2,363,904
|    |    └─Residual: 3-12               [-1, 197, 768]            4,723,968
|    └─TransformerEncoderBlock: 2-7      [-1, 197, 768]            --
|    |    └─Residual: 3-13               [-1, 197, 768]            2,363,904
|    |    └─Residual: 3-14               [-1, 197, 768]            4,723,968
|    └─TransformerEncoderBlock: 2-8      [-1, 197, 768]            --
|    |    └─Residual: 3-15               [-1, 197, 768]            2,363,904
|    |    └─Residual: 3-16               [-1, 197, 768]            4,723,968
|    └─TransformerEncoderBlock: 2-9      [-1, 197, 768]            --
|    |    └─Residual: 3-17               [-1, 197, 768]            2,363,904
|    |    └─Residual: 3-18               [-1, 197, 768]            4,723,968
|    └─TransformerEncoderBlock: 2-10     [-1, 197, 768]            --
|    |    └─Residual: 3-19               [-1, 197, 768]            2,363,904
|    |    └─Residual: 3-20               [-1, 197, 768]            4,723,968
|    └─TransformerEncoderBlock: 2-11     [-1, 197, 768]            --
|    |    └─Residual: 3-21               [-1, 197, 768]            2,363,904
|    |    └─Residual: 3-22               [-1, 197, 768]            4,723,968
|    └─TransformerEncoderBlock: 2-12     [-1, 197, 768]            --
|    |    └─Residual: 3-23               [-1, 197, 768]            2,363,904
|    |    └─Residual: 3-24               [-1, 197, 768]            4,723,968
|    └─TransformerEncoderBlock: 2-13     [-1, 197, 768]            --
|    |    └─Residual: 3-25               [-1, 197, 768]            2,363,904
|    |    └─Residual: 3-26               [-1, 197, 768]            4,723,968
├─ClassificationHead: 1-3                [-1, 100]                 --
|    └─Reduce: 2-14                      [-1, 768]                 --
|    └─LayerNorm: 2-15                   [-1, 768]                 1,536
|    └─Linear: 2-16                      [-1, 100]                 76,900
==========================================================================================
Total params: 85,723,492
Trainable params: 85,723,492
Non-trainable params: 0
Total mult-adds (M): 456.75
==========================================================================================
Input size (MB): 0.57
Forward/backward pass size (MB): 1.16
Params size (MB): 327.01
Estimated Total Size (MB): 328.74
…
