…
Seed: 64
Batch Size: 32
Number of Epochs: 100
Learning Rate: 3e-4
Input Channel: 3
Patch Size: 4
Embedding Size: 48
Input Image Size: 224
ViT Depth: 12
Number of Classes: 10
WandB Project: vit-small-data
WandB Run Name: org_architecture_cifar10_Lr_3e-4_EMB_48_patch_4_depth_12
Output Directory: results


==========================================================================================
Layer (type:depth-idx)                   Output Shape              Param #
==========================================================================================
├─PatchEmbedding: 1-1                    [-1, 3137, 48]            --
|    └─Sequential: 2-1                   [-1, 3136, 48]            --
|    |    └─Conv2d: 3-1                  [-1, 48, 56, 56]          2,352
|    |    └─Rearrange: 3-2               [-1, 3136, 48]            --
├─TransformerEncoder: 1-2                [-1, 3137, 48]            --
|    └─TransformerEncoderBlock: 2-2      [-1, 3137, 48]            --
|    |    └─Residual: 3-3                [-1, 3137, 48]            9,504
|    |    └─Residual: 3-4                [-1, 3137, 48]            18,768
|    └─TransformerEncoderBlock: 2-3      [-1, 3137, 48]            --
|    |    └─Residual: 3-5                [-1, 3137, 48]            9,504
|    |    └─Residual: 3-6                [-1, 3137, 48]            18,768
|    └─TransformerEncoderBlock: 2-4      [-1, 3137, 48]            --
|    |    └─Residual: 3-7                [-1, 3137, 48]            9,504
|    |    └─Residual: 3-8                [-1, 3137, 48]            18,768
|    └─TransformerEncoderBlock: 2-5      [-1, 3137, 48]            --
|    |    └─Residual: 3-9                [-1, 3137, 48]            9,504
|    |    └─Residual: 3-10               [-1, 3137, 48]            18,768
|    └─TransformerEncoderBlock: 2-6      [-1, 3137, 48]            --
|    |    └─Residual: 3-11               [-1, 3137, 48]            9,504
|    |    └─Residual: 3-12               [-1, 3137, 48]            18,768
|    └─TransformerEncoderBlock: 2-7      [-1, 3137, 48]            --
|    |    └─Residual: 3-13               [-1, 3137, 48]            9,504
|    |    └─Residual: 3-14               [-1, 3137, 48]            18,768
|    └─TransformerEncoderBlock: 2-8      [-1, 3137, 48]            --
|    |    └─Residual: 3-15               [-1, 3137, 48]            9,504
|    |    └─Residual: 3-16               [-1, 3137, 48]            18,768
|    └─TransformerEncoderBlock: 2-9      [-1, 3137, 48]            --
|    |    └─Residual: 3-17               [-1, 3137, 48]            9,504
|    |    └─Residual: 3-18               [-1, 3137, 48]            18,768
|    └─TransformerEncoderBlock: 2-10     [-1, 3137, 48]            --
|    |    └─Residual: 3-19               [-1, 3137, 48]            9,504
|    |    └─Residual: 3-20               [-1, 3137, 48]            18,768
|    └─TransformerEncoderBlock: 2-11     [-1, 3137, 48]            --
|    |    └─Residual: 3-21               [-1, 3137, 48]            9,504
|    |    └─Residual: 3-22               [-1, 3137, 48]            18,768
|    └─TransformerEncoderBlock: 2-12     [-1, 3137, 48]            --
|    |    └─Residual: 3-23               [-1, 3137, 48]            9,504
|    |    └─Residual: 3-24               [-1, 3137, 48]            18,768
|    └─TransformerEncoderBlock: 2-13     [-1, 3137, 48]            --
|    |    └─Residual: 3-25               [-1, 3137, 48]            9,504
|    |    └─Residual: 3-26               [-1, 3137, 48]            18,768
├─ClassificationHead: 1-3                [-1, 10]                  --
|    └─Reduce: 2-14                      [-1, 48]                  --
|    └─LayerNorm: 2-15                   [-1, 48]                  96
|    └─Linear: 2-16                      [-1, 10]                  490
==========================================================================================
Total params: 342,202
Trainable params: 342,202
Non-trainable params: 0
Total mult-adds (M): 8.56
==========================================================================================
Input size (MB): 0.57
Forward/backward pass size (MB): 1.15
Params size (MB): 1.31
Estimated Total Size (MB): 3.03
==========================================================================================

 ==========================================================================================
Layer (type:depth-idx)                   Output Shape              Param #
==========================================================================================
├─PatchEmbedding: 1-1                    [-1, 3137, 48]            --
|    └─Sequential: 2-1                   [-1, 3136, 48]            --
|    |    └─Conv2d: 3-1                  [-1, 48, 56, 56]          2,352
|    |    └─Rearrange: 3-2               [-1, 3136, 48]            --
├─TransformerEncoder: 1-2                [-1, 3137, 48]            --
|    └─TransformerEncoderBlock: 2-2      [-1, 3137, 48]            --
|    |    └─Residual: 3-3                [-1, 3137, 48]            9,504
|    |    └─Residual: 3-4                [-1, 3137, 48]            18,768
|    └─TransformerEncoderBlock: 2-3      [-1, 3137, 48]            --
|    |    └─Residual: 3-5                [-1, 3137, 48]            9,504
|    |    └─Residual: 3-6                [-1, 3137, 48]            18,768
|    └─TransformerEncoderBlock: 2-4      [-1, 3137, 48]            --
|    |    └─Residual: 3-7                [-1, 3137, 48]            9,504
|    |    └─Residual: 3-8                [-1, 3137, 48]            18,768
|    └─TransformerEncoderBlock: 2-5      [-1, 3137, 48]            --
|    |    └─Residual: 3-9                [-1, 3137, 48]            9,504
|    |    └─Residual: 3-10               [-1, 3137, 48]            18,768
|    └─TransformerEncoderBlock: 2-6      [-1, 3137, 48]            --
|    |    └─Residual: 3-11               [-1, 3137, 48]            9,504
|    |    └─Residual: 3-12               [-1, 3137, 48]            18,768
|    └─TransformerEncoderBlock: 2-7      [-1, 3137, 48]            --
|    |    └─Residual: 3-13               [-1, 3137, 48]            9,504
|    |    └─Residual: 3-14               [-1, 3137, 48]            18,768
|    └─TransformerEncoderBlock: 2-8      [-1, 3137, 48]            --
|    |    └─Residual: 3-15               [-1, 3137, 48]            9,504
|    |    └─Residual: 3-16               [-1, 3137, 48]            18,768
|    └─TransformerEncoderBlock: 2-9      [-1, 3137, 48]            --
|    |    └─Residual: 3-17               [-1, 3137, 48]            9,504
|    |    └─Residual: 3-18               [-1, 3137, 48]            18,768
|    └─TransformerEncoderBlock: 2-10     [-1, 3137, 48]            --
|    |    └─Residual: 3-19               [-1, 3137, 48]            9,504
|    |    └─Residual: 3-20               [-1, 3137, 48]            18,768
|    └─TransformerEncoderBlock: 2-11     [-1, 3137, 48]            --
|    |    └─Residual: 3-21               [-1, 3137, 48]            9,504
|    |    └─Residual: 3-22               [-1, 3137, 48]            18,768
|    └─TransformerEncoderBlock: 2-12     [-1, 3137, 48]            --
|    |    └─Residual: 3-23               [-1, 3137, 48]            9,504
|    |    └─Residual: 3-24               [-1, 3137, 48]            18,768
|    └─TransformerEncoderBlock: 2-13     [-1, 3137, 48]            --
|    |    └─Residual: 3-25               [-1, 3137, 48]            9,504
|    |    └─Residual: 3-26               [-1, 3137, 48]            18,768
├─ClassificationHead: 1-3                [-1, 10]                  --
|    └─Reduce: 2-14                      [-1, 48]                  --
|    └─LayerNorm: 2-15                   [-1, 48]                  96
|    └─Linear: 2-16                      [-1, 10]                  490
==========================================================================================
Total params: 342,202
Trainable params: 342,202
Non-trainable params: 0
Total mult-adds (M): 8.56
==========================================================================================
Input size (MB): 0.57
Forward/backward pass size (MB): 1.15
Params size (MB): 1.31
Estimated Total Size (MB): 3.03
========================================================================================== 
…
