…
Seed: 64
Batch Size: 32
Number of Epochs: 100
Learning Rate: 3e-4
Input Channel: 3
Patch Size: 8
Embedding Size: 192
Input Image Size: 224
ViT Depth: 12
Number of Classes: 10
WandB Project: vit-small-data
WandB Run Name: org_architecture_cifar10_Lr_3e-4_EMB_192_patch_8_depth_12
Output Directory: results


==========================================================================================
Layer (type:depth-idx)                   Output Shape              Param #
==========================================================================================
├─PatchEmbedding: 1-1                    [-1, 785, 192]            --
|    └─Sequential: 2-1                   [-1, 784, 192]            --
|    |    └─Conv2d: 3-1                  [-1, 192, 28, 28]         37,056
|    |    └─Rearrange: 3-2               [-1, 784, 192]            --
├─TransformerEncoder: 1-2                [-1, 785, 192]            --
|    └─TransformerEncoderBlock: 2-2      [-1, 785, 192]            --
|    |    └─Residual: 3-3                [-1, 785, 192]            148,608
|    |    └─Residual: 3-4                [-1, 785, 192]            296,256
|    └─TransformerEncoderBlock: 2-3      [-1, 785, 192]            --
|    |    └─Residual: 3-5                [-1, 785, 192]            148,608
|    |    └─Residual: 3-6                [-1, 785, 192]            296,256
|    └─TransformerEncoderBlock: 2-4      [-1, 785, 192]            --
|    |    └─Residual: 3-7                [-1, 785, 192]            148,608
|    |    └─Residual: 3-8                [-1, 785, 192]            296,256
|    └─TransformerEncoderBlock: 2-5      [-1, 785, 192]            --
|    |    └─Residual: 3-9                [-1, 785, 192]            148,608
|    |    └─Residual: 3-10               [-1, 785, 192]            296,256
|    └─TransformerEncoderBlock: 2-6      [-1, 785, 192]            --
|    |    └─Residual: 3-11               [-1, 785, 192]            148,608
|    |    └─Residual: 3-12               [-1, 785, 192]            296,256
|    └─TransformerEncoderBlock: 2-7      [-1, 785, 192]            --
|    |    └─Residual: 3-13               [-1, 785, 192]            148,608
|    |    └─Residual: 3-14               [-1, 785, 192]            296,256
|    └─TransformerEncoderBlock: 2-8      [-1, 785, 192]            --
|    |    └─Residual: 3-15               [-1, 785, 192]            148,608
|    |    └─Residual: 3-16               [-1, 785, 192]            296,256
|    └─TransformerEncoderBlock: 2-9      [-1, 785, 192]            --
|    |    └─Residual: 3-17               [-1, 785, 192]            148,608
|    |    └─Residual: 3-18               [-1, 785, 192]            296,256
|    └─TransformerEncoderBlock: 2-10     [-1, 785, 192]            --
|    |    └─Residual: 3-19               [-1, 785, 192]            148,608
|    |    └─Residual: 3-20               [-1, 785, 192]            296,256
|    └─TransformerEncoderBlock: 2-11     [-1, 785, 192]            --
|    |    └─Residual: 3-21               [-1, 785, 192]            148,608
|    |    └─Residual: 3-22               [-1, 785, 192]            296,256
|    └─TransformerEncoderBlock: 2-12     [-1, 785, 192]            --
|    |    └─Residual: 3-23               [-1, 785, 192]            148,608
|    |    └─Residual: 3-24               [-1, 785, 192]            296,256
|    └─TransformerEncoderBlock: 2-13     [-1, 785, 192]            --
|    |    └─Residual: 3-25               [-1, 785, 192]            148,608
|    |    └─Residual: 3-26               [-1, 785, 192]            296,256
├─ClassificationHead: 1-3                [-1, 10]                  --
|    └─Reduce: 2-14                      [-1, 192]                 --
|    └─LayerNorm: 2-15                   [-1, 192]                 384
|    └─Linear: 2-16                      [-1, 10]                  1,930
==========================================================================================
Total params: 5,377,738
Trainable params: 5,377,738
Non-trainable params: 0
Total mult-adds (M): 50.23
==========================================================================================
Input size (MB): 0.57
Forward/backward pass size (MB): 1.15
Params size (MB): 20.51
Estimated Total Size (MB): 22.24
==========================================================================================

 ==========================================================================================
Layer (type:depth-idx)                   Output Shape              Param #
==========================================================================================
├─PatchEmbedding: 1-1                    [-1, 785, 192]            --
|    └─Sequential: 2-1                   [-1, 784, 192]            --
|    |    └─Conv2d: 3-1                  [-1, 192, 28, 28]         37,056
|    |    └─Rearrange: 3-2               [-1, 784, 192]            --
├─TransformerEncoder: 1-2                [-1, 785, 192]            --
|    └─TransformerEncoderBlock: 2-2      [-1, 785, 192]            --
|    |    └─Residual: 3-3                [-1, 785, 192]            148,608
|    |    └─Residual: 3-4                [-1, 785, 192]            296,256
|    └─TransformerEncoderBlock: 2-3      [-1, 785, 192]            --
|    |    └─Residual: 3-5                [-1, 785, 192]            148,608
|    |    └─Residual: 3-6                [-1, 785, 192]            296,256
|    └─TransformerEncoderBlock: 2-4      [-1, 785, 192]            --
|    |    └─Residual: 3-7                [-1, 785, 192]            148,608
|    |    └─Residual: 3-8                [-1, 785, 192]            296,256
|    └─TransformerEncoderBlock: 2-5      [-1, 785, 192]            --
|    |    └─Residual: 3-9                [-1, 785, 192]            148,608
|    |    └─Residual: 3-10               [-1, 785, 192]            296,256
|    └─TransformerEncoderBlock: 2-6      [-1, 785, 192]            --
|    |    └─Residual: 3-11               [-1, 785, 192]            148,608
|    |    └─Residual: 3-12               [-1, 785, 192]            296,256
|    └─TransformerEncoderBlock: 2-7      [-1, 785, 192]            --
|    |    └─Residual: 3-13               [-1, 785, 192]            148,608
|    |    └─Residual: 3-14               [-1, 785, 192]            296,256
|    └─TransformerEncoderBlock: 2-8      [-1, 785, 192]            --
|    |    └─Residual: 3-15               [-1, 785, 192]            148,608
|    |    └─Residual: 3-16               [-1, 785, 192]            296,256
|    └─TransformerEncoderBlock: 2-9      [-1, 785, 192]            --
|    |    └─Residual: 3-17               [-1, 785, 192]            148,608
|    |    └─Residual: 3-18               [-1, 785, 192]            296,256
|    └─TransformerEncoderBlock: 2-10     [-1, 785, 192]            --
|    |    └─Residual: 3-19               [-1, 785, 192]            148,608
|    |    └─Residual: 3-20               [-1, 785, 192]            296,256
|    └─TransformerEncoderBlock: 2-11     [-1, 785, 192]            --
|    |    └─Residual: 3-21               [-1, 785, 192]            148,608
|    |    └─Residual: 3-22               [-1, 785, 192]            296,256
|    └─TransformerEncoderBlock: 2-12     [-1, 785, 192]            --
|    |    └─Residual: 3-23               [-1, 785, 192]            148,608
|    |    └─Residual: 3-24               [-1, 785, 192]            296,256
|    └─TransformerEncoderBlock: 2-13     [-1, 785, 192]            --
|    |    └─Residual: 3-25               [-1, 785, 192]            148,608
|    |    └─Residual: 3-26               [-1, 785, 192]            296,256
├─ClassificationHead: 1-3                [-1, 10]                  --
|    └─Reduce: 2-14                      [-1, 192]                 --
|    └─LayerNorm: 2-15                   [-1, 192]                 384
|    └─Linear: 2-16                      [-1, 10]                  1,930
==========================================================================================
Total params: 5,377,738
Trainable params: 5,377,738
Non-trainable params: 0
Total mult-adds (M): 50.23
==========================================================================================
Input size (MB): 0.57
Forward/backward pass size (MB): 1.15
Params size (MB): 20.51
Estimated Total Size (MB): 22.24
…
