…
Seed: 64
Batch Size: 32
Number of Epochs: 100
Learning Rate: 3e-4
Input Channel: 3
Patch Size: 12
Embedding Size: 432
Input Image Size: 224
ViT Depth: 12
Number of Classes: 10
WandB Project: vit-small-data
WandB Run Name: org_architecture_cifar10_Lr_3e-4_EMB_432_patch_12_depth_12
Output Directory: results


==========================================================================================
Layer (type:depth-idx)                   Output Shape              Param #
==========================================================================================
├─PatchEmbedding: 1-1                    [-1, 325, 432]            --
|    └─Sequential: 2-1                   [-1, 324, 432]            --
|    |    └─Conv2d: 3-1                  [-1, 432, 18, 18]         187,056
|    |    └─Rearrange: 3-2               [-1, 324, 432]            --
├─TransformerEncoder: 1-2                [-1, 325, 432]            --
|    └─TransformerEncoderBlock: 2-2      [-1, 325, 432]            --
|    |    └─Residual: 3-3                [-1, 325, 432]            749,088
|    |    └─Residual: 3-4                [-1, 325, 432]            1,496,016
|    └─TransformerEncoderBlock: 2-3      [-1, 325, 432]            --
|    |    └─Residual: 3-5                [-1, 325, 432]            749,088
|    |    └─Residual: 3-6                [-1, 325, 432]            1,496,016
|    └─TransformerEncoderBlock: 2-4      [-1, 325, 432]            --
|    |    └─Residual: 3-7                [-1, 325, 432]            749,088
|    |    └─Residual: 3-8                [-1, 325, 432]            1,496,016
|    └─TransformerEncoderBlock: 2-5      [-1, 325, 432]            --
|    |    └─Residual: 3-9                [-1, 325, 432]            749,088
|    |    └─Residual: 3-10               [-1, 325, 432]            1,496,016
|    └─TransformerEncoderBlock: 2-6      [-1, 325, 432]            --
|    |    └─Residual: 3-11               [-1, 325, 432]            749,088
|    |    └─Residual: 3-12               [-1, 325, 432]            1,496,016
|    └─TransformerEncoderBlock: 2-7      [-1, 325, 432]            --
|    |    └─Residual: 3-13               [-1, 325, 432]            749,088
|    |    └─Residual: 3-14               [-1, 325, 432]            1,496,016
|    └─TransformerEncoderBlock: 2-8      [-1, 325, 432]            --
|    |    └─Residual: 3-15               [-1, 325, 432]            749,088
|    |    └─Residual: 3-16               [-1, 325, 432]            1,496,016
|    └─TransformerEncoderBlock: 2-9      [-1, 325, 432]            --
|    |    └─Residual: 3-17               [-1, 325, 432]            749,088
|    |    └─Residual: 3-18               [-1, 325, 432]            1,496,016
|    └─TransformerEncoderBlock: 2-10     [-1, 325, 432]            --
|    |    └─Residual: 3-19               [-1, 325, 432]            749,088
|    |    └─Residual: 3-20               [-1, 325, 432]            1,496,016
|    └─TransformerEncoderBlock: 2-11     [-1, 325, 432]            --
|    |    └─Residual: 3-21               [-1, 325, 432]            749,088
|    |    └─Residual: 3-22               [-1, 325, 432]            1,496,016
|    └─TransformerEncoderBlock: 2-12     [-1, 325, 432]            --
|    |    └─Residual: 3-23               [-1, 325, 432]            749,088
|    |    └─Residual: 3-24               [-1, 325, 432]            1,496,016
|    └─TransformerEncoderBlock: 2-13     [-1, 325, 432]            --
|    |    └─Residual: 3-25               [-1, 325, 432]            749,088
|    |    └─Residual: 3-26               [-1, 325, 432]            1,496,016
├─ClassificationHead: 1-3                [-1, 10]                  --
|    └─Reduce: 2-14                      [-1, 432]                 --
|    └─LayerNorm: 2-15                   [-1, 432]                 864
|    └─Linear: 2-16                      [-1, 10]                  4,330
==========================================================================================
Total params: 27,133,498
Trainable params: 27,133,498
Non-trainable params: 0
Total mult-adds (M): 168.39
==========================================================================================
Input size (MB): 0.57
Forward/backward pass size (MB): 1.07
Params size (MB): 103.51
Estimated Total Size (MB): 105.15
==========================================================================================

 ==========================================================================================
Layer (type:depth-idx)                   Output Shape              Param #
==========================================================================================
├─PatchEmbedding: 1-1                    [-1, 325, 432]            --
|    └─Sequential: 2-1                   [-1, 324, 432]            --
|    |    └─Conv2d: 3-1                  [-1, 432, 18, 18]         187,056
|    |    └─Rearrange: 3-2               [-1, 324, 432]            --
├─TransformerEncoder: 1-2                [-1, 325, 432]            --
|    └─TransformerEncoderBlock: 2-2      [-1, 325, 432]            --
|    |    └─Residual: 3-3                [-1, 325, 432]            749,088
|    |    └─Residual: 3-4                [-1, 325, 432]            1,496,016
|    └─TransformerEncoderBlock: 2-3      [-1, 325, 432]            --
|    |    └─Residual: 3-5                [-1, 325, 432]            749,088
|    |    └─Residual: 3-6                [-1, 325, 432]            1,496,016
|    └─TransformerEncoderBlock: 2-4      [-1, 325, 432]            --
|    |    └─Residual: 3-7                [-1, 325, 432]            749,088
|    |    └─Residual: 3-8                [-1, 325, 432]            1,496,016
|    └─TransformerEncoderBlock: 2-5      [-1, 325, 432]            --
|    |    └─Residual: 3-9                [-1, 325, 432]            749,088
|    |    └─Residual: 3-10               [-1, 325, 432]            1,496,016
|    └─TransformerEncoderBlock: 2-6      [-1, 325, 432]            --
|    |    └─Residual: 3-11               [-1, 325, 432]            749,088
|    |    └─Residual: 3-12               [-1, 325, 432]            1,496,016
|    └─TransformerEncoderBlock: 2-7      [-1, 325, 432]            --
|    |    └─Residual: 3-13               [-1, 325, 432]            749,088
|    |    └─Residual: 3-14               [-1, 325, 432]            1,496,016
|    └─TransformerEncoderBlock: 2-8      [-1, 325, 432]            --
|    |    └─Residual: 3-15               [-1, 325, 432]            749,088
|    |    └─Residual: 3-16               [-1, 325, 432]            1,496,016
|    └─TransformerEncoderBlock: 2-9      [-1, 325, 432]            --
|    |    └─Residual: 3-17               [-1, 325, 432]            749,088
|    |    └─Residual: 3-18               [-1, 325, 432]            1,496,016
|    └─TransformerEncoderBlock: 2-10     [-1, 325, 432]            --
|    |    └─Residual: 3-19               [-1, 325, 432]            749,088
|    |    └─Residual: 3-20               [-1, 325, 432]            1,496,016
|    └─TransformerEncoderBlock: 2-11     [-1, 325, 432]            --
|    |    └─Residual: 3-21               [-1, 325, 432]            749,088
|    |    └─Residual: 3-22               [-1, 325, 432]            1,496,016
|    └─TransformerEncoderBlock: 2-12     [-1, 325, 432]            --
|    |    └─Residual: 3-23               [-1, 325, 432]            749,088
|    |    └─Residual: 3-24               [-1, 325, 432]            1,496,016
|    └─TransformerEncoderBlock: 2-13     [-1, 325, 432]            --
|    |    └─Residual: 3-25               [-1, 325, 432]            749,088
|    |    └─Residual: 3-26               [-1, 325, 432]            1,496,016
├─ClassificationHead: 1-3                [-1, 10]                  --
|    └─Reduce: 2-14                      [-1, 432]                 --
|    └─LayerNorm: 2-15                   [-1, 432]                 864
|    └─Linear: 2-16                      [-1, 10]                  4,330
==========================================================================================
Total params: 27,133,498
Trainable params: 27,133,498
Non-trainable params: 0
Total mult-adds (M): 168.39
==========================================================================================
Input size (MB): 0.57
Forward/backward pass size (MB): 1.07
Params size (MB): 103.51
Estimated Total Size (MB): 105.15
…
