…
Number of Epochs: 1000
Learning Rate: 3e-4
Input Channel: 3
Patch Size: 16
Embedding Size: 768
Input Image Size: 224
ViT Depth: 12
Number of Classes: 10
WandB Project: vit-small-data
WandB Run Name: org_architecture_stl10_Lr_3e-4_EMB_768_patch_16_depth_12
Output Directory: results


===============================================================================================
Layer (type:depth-idx)                        Output Shape              Param #
===============================================================================================
├─PatchEmbedding: 1-1                         [-1, 197, 768]            --
|    └─Sequential: 2-1                        [-1, 196, 768]            --
|    |    └─Conv2d: 3-1                       [-1, 768, 14, 14]         590,592
|    |    └─Rearrange: 3-2                    [-1, 196, 768]            --
├─TransformerEncoder: 1-2                     [-1, 197, 768]            --
|    └─TransformerEncoderBlock: 2-2           [-1, 197, 768]            --
|    |    └─Residual: 3-3                     [-1, 197, 768]            2,363,904
|    |    └─Sequential: 3-4                   [-1, 197, 768]            4,723,968
|    └─TransformerEncoderBlock: 2-3           [-1, 197, 768]            --
|    |    └─Residual: 3-5                     [-1, 197, 768]            2,363,904
|    |    └─Sequential: 3-6                   [-1, 197, 768]            4,723,968
|    └─TransformerEncoderBlock: 2-4           [-1, 197, 768]            --
|    |    └─Residual: 3-7                     [-1, 197, 768]            2,363,904
|    |    └─Sequential: 3-8                   [-1, 197, 768]            4,723,968
|    └─TransformerEncoderBlock: 2-5           [-1, 197, 768]            --
|    |    └─Residual: 3-9                     [-1, 197, 768]            2,363,904
|    |    └─Sequential: 3-10                  [-1, 197, 768]            4,723,968
|    └─TransformerEncoderBlock: 2-6           [-1, 197, 768]            --
|    |    └─Residual: 3-11                    [-1, 197, 768]            2,363,904
|    |    └─Sequential: 3-12                  [-1, 197, 768]            4,723,968
|    └─TransformerEncoderBlock: 2-7           [-1, 197, 768]            --
|    |    └─Residual: 3-13                    [-1, 197, 768]            2,363,904
|    |    └─Sequential: 3-14                  [-1, 197, 768]            4,723,968
|    └─TransformerEncoderBlock: 2-8           [-1, 197, 768]            --
|    |    └─Residual: 3-15                    [-1, 197, 768]            2,363,904
|    |    └─Sequential: 3-16                  [-1, 197, 768]            4,723,968
|    └─TransformerEncoderBlock: 2-9           [-1, 197, 768]            --
|    |    └─Residual: 3-17                    [-1, 197, 768]            2,363,904
|    |    └─Sequential: 3-18                  [-1, 197, 768]            4,723,968
|    └─TransformerEncoderBlock: 2-10          [-1, 197, 768]            --
|    |    └─Residual: 3-19                    [-1, 197, 768]            2,363,904
|    |    └─Sequential: 3-20                  [-1, 197, 768]            4,723,968
|    └─TransformerEncoderBlock: 2-11          [-1, 197, 768]            --
|    |    └─Residual: 3-21                    [-1, 197, 768]            2,363,904
|    |    └─Sequential: 3-22                  [-1, 197, 768]            4,723,968
|    └─TransformerEncoderBlock: 2-12          [-1, 197, 768]            --
|    |    └─Residual: 3-23                    [-1, 197, 768]            2,363,904
|    |    └─Sequential: 3-24                  [-1, 197, 768]            4,723,968
|    └─TransformerEncoderBlock: 2-13          [-1, 197, 768]            --
|    |    └─Residual: 3-25                    [-1, 197, 768]            2,363,904
|    |    └─Sequential: 3-26                  [-1, 197, 768]            4,723,968
├─ClassificationHead: 1-3                     [-1, 10]                  --
|    └─Reduce: 2-14                           [-1, 768]                 --
|    └─LayerNorm: 2-15                        [-1, 768]                 1,536
|    └─Linear: 2-16                           [-1, 10]                  7,690
===============================================================================================
Total params: 85,654,282
Trainable params: 85,654,282
Non-trainable params: 0
Total mult-adds (M): 456.61
===============================================================================================
Input size (MB): 0.57
Forward/backward pass size (MB): 15.01
Params size (MB): 326.75
Estimated Total Size (MB): 342.33
===============================================================================================

 ===============================================================================================
Layer (type:depth-idx)                        Output Shape              Param #
===============================================================================================
├─PatchEmbedding: 1-1                         [-1, 197, 768]            --
|    └─Sequential: 2-1                        [-1, 196, 768]            --
|    |    └─Conv2d: 3-1                       [-1, 768, 14, 14]         590,592
|    |    └─Rearrange: 3-2                    [-1, 196, 768]            --
├─TransformerEncoder: 1-2                     [-1, 197, 768]            --
|    └─TransformerEncoderBlock: 2-2           [-1, 197, 768]            --
|    |    └─Residual: 3-3                     [-1, 197, 768]            2,363,904
|    |    └─Sequential: 3-4                   [-1, 197, 768]            4,723,968
|    └─TransformerEncoderBlock: 2-3           [-1, 197, 768]            --
|    |    └─Residual: 3-5                     [-1, 197, 768]            2,363,904
|    |    └─Sequential: 3-6                   [-1, 197, 768]            4,723,968
|    └─TransformerEncoderBlock: 2-4           [-1, 197, 768]            --
|    |    └─Residual: 3-7                     [-1, 197, 768]            2,363,904
|    |    └─Sequential: 3-8                   [-1, 197, 768]            4,723,968
|    └─TransformerEncoderBlock: 2-5           [-1, 197, 768]            --
|    |    └─Residual: 3-9                     [-1, 197, 768]            2,363,904
|    |    └─Sequential: 3-10                  [-1, 197, 768]            4,723,968
|    └─TransformerEncoderBlock: 2-6           [-1, 197, 768]            --
|    |    └─Residual: 3-11                    [-1, 197, 768]            2,363,904
|    |    └─Sequential: 3-12                  [-1, 197, 768]            4,723,968
|    └─TransformerEncoderBlock: 2-7           [-1, 197, 768]            --
|    |    └─Residual: 3-13                    [-1, 197, 768]            2,363,904
|    |    └─Sequential: 3-14                  [-1, 197, 768]            4,723,968
|    └─TransformerEncoderBlock: 2-8           [-1, 197, 768]            --
|    |    └─Residual: 3-15                    [-1, 197, 768]            2,363,904
|    |    └─Sequential: 3-16                  [-1, 197, 768]            4,723,968
|    └─TransformerEncoderBlock: 2-9           [-1, 197, 768]            --
|    |    └─Residual: 3-17                    [-1, 197, 768]            2,363,904
|    |    └─Sequential: 3-18                  [-1, 197, 768]            4,723,968
|    └─TransformerEncoderBlock: 2-10          [-1, 197, 768]            --
|    |    └─Residual: 3-19                    [-1, 197, 768]            2,363,904
|    |    └─Sequential: 3-20                  [-1, 197, 768]            4,723,968
|    └─TransformerEncoderBlock: 2-11          [-1, 197, 768]            --
|    |    └─Residual: 3-21                    [-1, 197, 768]            2,363,904
|    |    └─Sequential: 3-22                  [-1, 197, 768]            4,723,968
|    └─TransformerEncoderBlock: 2-12          [-1, 197, 768]            --
|    |    └─Residual: 3-23                    [-1, 197, 768]            2,363,904
|    |    └─Sequential: 3-24                  [-1, 197, 768]            4,723,968
|    └─TransformerEncoderBlock: 2-13          [-1, 197, 768]            --
|    |    └─Residual: 3-25                    [-1, 197, 768]            2,363,904
|    |    └─Sequential: 3-26                  [-1, 197, 768]            4,723,968
├─ClassificationHead: 1-3                     [-1, 10]                  --
|    └─Reduce: 2-14                           [-1, 768]                 --
|    └─LayerNorm: 2-15                        [-1, 768]                 1,536
|    └─Linear: 2-16                           [-1, 10]                  7,690
===============================================================================================
Total params: 85,654,282
Trainable params: 85,654,282
Non-trainable params: 0
Total mult-adds (M): 456.61
===============================================================================================
Input size (MB): 0.57
Forward/backward pass size (MB): 15.01
Params size (MB): 326.75
Estimated Total Size (MB): 342.33
…
